…
_steps_100000//adapt_callhome_3/gradclip_5_batchsize_32_num_frames_500_adam_lr_1e-4/models_adapt', model_type='EEND', noam_warmup_steps=100000, num_frames=500, num_speakers=3, optimizer='adam', resume=0, rnn_cell='LSTM', sampling_rate=8000, seed=777, subsampling=10, train_data_dir='data/callhome/eval/callhome1_spk3', transformer_encoder_dropout=0.1, transformer_encoder_n_heads=4, transformer_encoder_n_layers=4, valid_data_dir='data/callhome/eval/callhome2_spk3')
[ INFO : 2022-02-14 15:22:30,209 ] - Prepared model
[ INFO : 2022-02-14 15:22:30,210 ] - DataParallel(
  (module): EEND(
    (encoder): Linear(in_features=345, out_features=256, bias=True)
    (encoder_norm): LayerNorm((256,), eps=1e-05, elementwise_affine=True)
    (transformer_encoder): TransformerEncoder(
      (layers): ModuleList(
        (0): TransformerEncoderLayer(
          (self_attn): MultiheadAttention(
            (out_proj): _LinearWithBias(in_features=256, out_features=256, bias=True)
          )
          (linear1): Linear(in_features=256, out_features=2048, bias=True)
          (dropout): Dropout(p=0.1, inplace=False)
          (linear2): Linear(in_features=2048, out_features=256, bias=True)
          (norm1): LayerNorm((256,), eps=1e-05, elementwise_affine=True)
          (norm2): LayerNorm((256,), eps=1e-05, elementwise_affine=True)
          (dropout1): Dropout(p=0.1, inplace=False)
          (dropout2): Dropout(p=0.1, inplace=False)
        )
        (1): TransformerEncoderLayer(
          (self_attn): MultiheadAttention(
            (out_proj): _LinearWithBias(in_features=256, out_features=256, bias=True)
          )
          (linear1): Linear(in_features=256, out_features=2048, bias=True)
          (dropout): Dropout(p=0.1, inplace=False)
          (linear2): Linear(in_features=2048, out_features=256, bias=True)
          (norm1): LayerNorm((256,), eps=1e-05, elementwise_affine=True)
          (norm2): LayerNorm((256,), eps=1e-05, elementwise_affine=True)
          (dropout1): Dropout(p=0.1, inplace=False)
          (dropout2): Dropout(p=0.1, inplace=False)
        )
        (2): TransformerEncoderLayer(
          (self_attn): MultiheadAttention(
            (out_proj): _LinearWithBias(in_features=256, out_features=256, bias=True)
          )
          (linear1): Linear(in_features=256, out_features=2048, bias=True)
          (dropout): Dropout(p=0.1, inplace=False)
          (linear2): Linear(in_features=2048, out_features=256, bias=True)
          (norm1): LayerNorm((256,), eps=1e-05, elementwise_affine=True)
          (norm2): LayerNorm((256,), eps=1e-05, elementwise_affine=True)
          (dropout1): Dropout(p=0.1, inplace=False)
          (dropout2): Dropout(p=0.1, inplace=False)
        )
        (3): TransformerEncoderLayer(
          (self_attn): MultiheadAttention(
            (out_proj): _LinearWithBias(in_features=256, out_features=256, bias=True)
          )
          (linear1): Linear(in_features=256, out_features=2048, bias=True)
          (dropout): Dropout(p=0.1, inplace=False)
          (linear2): Linear(in_features=2048, out_features=256, bias=True)
          (norm1): LayerNorm((256,), eps=1e-05, elementwise_affine=True)
          (norm2): LayerNorm((256,), eps=1e-05, elementwise_affine=True)
          (dropout1): Dropout(p=0.1, inplace=False)
          (dropout2): Dropout(p=0.1, inplace=False)
        )
      )
    )
    (decoder): Linear(in_features=256, out_features=3, bias=True)
  )
)
[ INFO : 2022-02-14 15:22:30,216 ] - Load model from exp/LibriSpeech_3/EEND/gradclip_5_batchsize_32_num_frames_500_noam_lr_1.0_noam_warmup_steps_100000//models/avg.th
[ INFO : 2022-02-14 15:22:43,580 ] - Epoch:   1, LR: 0.0001000,            Training Loss: 0.32597, Dev Stats: {'speech_scored': 344.27, 'speech_miss': 14.42, 'speech_falarm': 18.53, 'speaker_scored': 396.21, 'speaker_miss': 41.12, 'speaker_falarm': 45.69, 'speaker_error': 18.39, 'correct': 340.76, 'diarization_error': 105.2, 'frames': 381.95, 'DER': 26.55, 'change_recall': 0.0, 'change_precision': 0.0, 'num_pred_acc': 0.0}
…
